weights_int8.npz (npz, 238534 bytes, 6 tensors)

W0_q i1 [784, 256]
0	0xe1	-31
1	0x05	5
2	0x0c	12
3	0x01	1
4	0xf6	-10
5	0xfd	-3
6	0xe7	-25
7	0xd1	-47
8	0xf3	-13
9	0xdb	-37
10	0xca	-54
11	0xf0	-16
12	0x31	49
13	0x0d	13
14	0x11	17
15	0xfc	-4
16	0x0c	12
17	0x23	35
18	0x0a	10
19	0xf0	-16
20	0x20	32
21	0xfb	-5
22	0x06	6
23	0xef	-17
24	0x17	23
25	0xfb	-5
26	0xfb	-5
27	0xea	-22
28	0xfa	-6
29	0xd8	-40
30	0xf8	-8
31	0x08	8
32	0x02	2
33	0x16	22
34	0x10	16
35	0x0a	10
36	0xf2	-14
37	0x01	1
38	0x03	3
39	0x07	7
40	0x10	16
41	0xec	-20
42	0xf3	-13
43	0xfc	-4
44	0x2d	45
45	0x10	16
46	0xef	-17
47	0xe8	-24
48	0xeb	-21
49	0xd6	-42
50	0x24	36
51	0x1d	29
52	0xe5	-27
53	0xf3	-13
54	0xed	-19
55	0xe1	-31
56	0x03	3
57	0xe9	-23
58	0xfb	-5
59	0x0a	10
60	0x0f	15
61	0xdc	-36
62	0x08	8
63	0x08	8
64	0x17	23
65	0x04	4
66	0x02	2
67	0xfc	-4
68	0xe8	-24
69	0x0c	12
70	0xe4	-28
71	0xed	-19
72	0xf8	-8
73	0xff	-1
74	0xfe	-2
75	0x0b	11
76	0xfb	-5
77	0xf1	-15
78	0xf8	-8
79	0xd4	-44
80	0xf9	-7
81	0x13	19
82	0xef	-17
83	0xf6	-10
84	0xfc	-4
85	0x02	2
86	0x0d	13
87	0xf4	-12
88	0xff	-1
89	0x01	1
90	0x0b	11
91	0x0e	14
92	0x20	32
93	0xf1	-15
94	0x06	6
95	0x05	5
96	0x00	0
97	0x11	17
98	0x0f	15
99	0xd8	-40
100	0x0e	14
101	0x16	22
102	0x0b	11
103	0x0a	10
104	0xd7	-41
105	0x05	5
106	0x13	19
107	0x08	8
108	0x24	36
109	0x19	25
110	0xf3	-13
111	0xe5	-27
112	0xdc	-36
113	0xfa	-6
114	0xe6	-26
115	0xee	-18
116	0x08	8
117	0x0d	13
118	0x00	0
119	0x22	34
120	0x08	8
121	0x19	25
122	0xfc	-4
123	0x0a	10
124	0x1c	28
125	0x06	6
126	0xf9	-7
127	0x24	36
128	0x11	17
129	0x0a	10
130	0xf9	-7
131	0xfb	-5
132	0xff	-1
133	0xce	-50
134	0x06	6
135	0x03	3
136	0x23	35
137	0xea	-22
138	0x1c	28
139	0x05	5
140	0xea	-22
141	0xdd	-35
142	0xfe	-2
143	0x0a	10
144	0x06	6
145	0x19	25
146	0x00	0
147	0x0e	14
148	0x07	7
149	0x00	0
150	0xfd	-3
151	0x18	24
152	0x34	52
153	0xb9	-71
154	0xfa	-6
155	0xf2	-14
156	0xdc	-36
157	0x06	6
158	0x2a	42
159	0x14	20
160	0xe3	-29
161	0x21	33
162	0xe9	-23
163	0xdc	-36
164	0xf5	-11
165	0xf5	-11
166	0xeb	-21
167	0x19	25
168	0x11	17
169	0xf4	-12
170	0xe0	-32
171	0x00	0
172	0xed	-19
173	0xf5	-11
174	0xe9	-23
175	0x02	2
176	0xf9	-7
177	0xea	-22
178	0xfa	-6
179	0x02	2
180	0x27	39
181	0x0a	10
182	0xff	-1
183	0xea	-22
184	0xf9	-7
185	0x14	20
186	0xe3	-29
187	0x12	18
188	0x28	40
189	0x1c	28
190	0xfc	-4
191	0x0b	11
192	0xfe	-2
193	0xf6	-10
194	0xfc	-4
195	0xfb	-5
196	0x0f	15
197	0x0b	11
198	0x0f	15
199	0xe8	-24
200	0xda	-38
201	0xeb	-21
202	0xea	-22
203	0xe2	-30
204	0xe0	-32
205	0x1d	29
206	0x2a	42
207	0xe8	-24
208	0x0f	15
209	0x0b	11
210	0x31	49
211	0xef	-17
212	0xf6	-10
213	0xe7	-25
214	0xe9	-23
215	0xfb	-5
216	0x2c	44
217	0xca	-54
218	0x08	8
219	0x29	41
220	0x02	2
221	0xfd	-3
222	0x04	4
223	0xfc	-4
224	0x15	21
225	0x02	2
226	0x20	32
227	0xfd	-3
228	0x17	23
229	0xfd	-3
230	0x2e	46
231	0x01	1
232	0xdd	-35
233	0x01	1
234	0xee	-18
235	0x24	36
236	0x2a	42
237	0xf4	-12
238	0xfe	-2
239	0x12	18
240	0xe8	-24
241	0xf7	-9
242	0xf2	-14
243	0xe8	-24
244	0xd8	-40
245	0x0a	10
246	0xe7	-25
247	0x08	8
248	0x00	0
249	0xf9	-7
250	0xe9	-23
251	0xfc	-4
252	0x0a	10
253	0xf9	-7
254	0xec	-20
255	0xe1	-31

b0 f4 [256]
0	0x3c865e16	0.016402286
1	0xbbfe9393	-0.007769057
2	0xbb4d53e3	-0.0031330518
3	0x3b1857a3	0.0023245595
4	0x3c2b44b8	0.010453396
5	0x3c3cef6c	0.011531692
6	0xbb737600	-0.003714919
7	0x39db2da3	0.00041804937
8	0x3b2a09d7	0.0025945806
9	0x3ca746e8	0.020419553
10	0x3b828ecf	0.0039843093
11	0x3be9aaa6	0.0071309386
12	0xba88fab7	-0.0010450695
13	0xbb51c21c	-0.0032006567
14	0x3b6c0cbe	0.0036018337
15	0xbc1fc18a	-0.009750733
16	0x3c9ce0f6	0.019150238
17	0xbbf70cfb	-0.007539389
18	0x3c684112	0.01417567
19	0xbc2e41bd	-0.01063579
20	0x3beeb641	0.00728491
21	0xbc1cac55	-0.0095625715
22	0xbc637ee8	-0.013885237
23	0xbbb2762e	-0.005446217
24	0xbb72c745	-0.0037045043
25	0x3b9bf293	0.0047591417
26	0x3bf304dc	0.0074163508
27	0x3a8485ee	0.0010110715
28	0xbc292275	-0.010323157
29	0x3bff0621	0.007782713
30	0x3babf30c	0.0052474793
31	0xbc3433fa	-0.01099872
32	0xbb961c3e	-0.0045810034
33	0xbb11e868	-0.002226377
34	0x3a588452	0.00082594634
35	0xbcbd8ec9	-0.023139374
36	0x3b9810b1	0.0046406616
37	0xbc9517a5	-0.018199751
38	0x3ca7d5f0	0.020487756
39	0xbbcc578a	-0.0062360214
40	0xbc320cf5	-0.010867347
41	0xbc5d60d1	-0.013511852
42	0xbbcdc436	-0.0062794937
43	0xba8875b1	-0.0010411051
44	0xbb43de43	-0.0029887117
45	0xbb8d20b2	-0.004306876
46	0xbb19fd84	-0.0023497054
47	0xbb9d0fd2	-0.0047931457
48	0xba4b6dfd	-0.0007760225
49	0xbcadd97e	-0.021221872
50	0xbbac8ed2	-0.005266049
51	0xbba7322f	-0.005102418
52	0xbc98262e	-0.018572893
53	0xbbe1b733	-0.006888294
54	0xbc829296	-0.015939038
55	0x3c3aa6e9	0.011392334
56	0xbc415880	-0.011800885
57	0xbc1c8cec	-0.009555083
58	0xbc3106b6	-0.010804823
59	0x3b760b9d	0.0037543543
60	0x3c9d1f5d	0.019179994
61	0xbb3e21cc	-0.0029011844
62	0x3bb7ce5d	0.005609317
63	0x3bcb4d37	0.006204273
64	0x3b092cf6	0.002093134
65	0xbc55830f	-0.013031735
66	0x3cac99b7	0.02106939
67	0x3b460a96	0.0030218712
68	0x3c884279	0.01663326
69	0xbc3fc560	-0.011704773
70	0x3bffdfae	0.007808647
71	0xbc441c6c	-0.011969667
72	0x3bc79ae0	0.0060914606
73	0xbc02d19a	-0.007984543
74	0x3c993aed	0.018704856
75	0xbba96869	-0.0051699174
76	0x3c454e26	0.012042558
77	0xbb8dd54c	-0.0043284055
78	0xbbe4c610	-0.0069816187
79	0x3bf463ba	0.0074581774
80	0x390ed212	0.00013620433
81	0xbc332303	-0.01093364
82	0x3c611d35	0.013739874
83	0x3ae9e002	0.0017843249
84	0xbbd8b7e5	-0.006613719
85	0xbba87f05	-0.005142095
86	0x3b800960	0.0039073676
87	0x3bbd6367	0.005779672
88	0xb9d1ca83	-0.0004001447
89	0x3c22ee60	0.009944528
90	0x3b67e1f3	0.003538248
91	0xbc4b3276	-0.012402168
92	0xbc0e73af	-0.008694573
93	0xbb524659	-0.0032085388
94	0x3b81cbb9	0.003961053
95	0x3b803c22	0.0039134184
96	0x3968c305	0.00022197895
97	0xbcb40900	-0.021976948
98	0xbc48fba0	-0.012267023
99	0xbb47f355	-0.0030510027
100	0x3bb06c05	0.0053839707
101	0x3c109613	0.008824843
102	0x3ca86ef2	0.020560715
103	0x3c542797	0.012948892
104	0x3a9211f9	0.0011144272
105	0x3c187b69	0.009306767
106	0xbbc37579	-0.0059649316
107	0x3bb74bbf	0.0055937464
108	0x3c00e927	0.007868088
109	0xbb5609a6	-0.003265956
110	0x3c400b8c	0.011721503
111	0xbb7790e5	-0.0037775573
112	0xbc099e03	-0.008399489
113	0x3b8d9170	0.004320316
114	0x3b2ee9e2	0.0026689698
115	0xbc70d278	-0.014698617
116	0xbbe63a0a	-0.0070259618
117	0x3bbd7386	0.0057815937
118	0xbc80fd65	-0.015745828
119	0x3beb8fdf	0.0071887816
120	0x3c89f9fc	0.016842835
121	0x3aa5ed88	0.0012659291
122	0xbcf2ac97	-0.029623313
123	0x3cb48155	0.022034327
124	0xbc650498	-0.013978146
125	0xbab9795e	-0.001415055
126	0x3bd04d5c	0.006356878
127	0xbc92b284	-0.017907389
128	0x3be2f05b	0.0069256253
129	0xbbf352c6	-0.007425639
130	0xbc5abdb7	-0.013350896
131	0xbc9abd5f	-0.018889127
132	0xbaed2761	-0.0018093401
133	0xbbf93139	-0.0076047448
134	0x3c81c311	0.015840085
135	0x3bc8b244	0.0061247665
136	0xbc22986c	-0.0099240355
137	0xba528928	-0.0008031302
138	0xbbb293ac	-0.0054497328
139	0xbb5e208f	-0.0033893918
140	0x3b835e9c	0.004009081
141	0x3b94b73a	0.004538444
142	0x3c10801f	0.008819609
143	0xbbb227b9	-0.005436864
144	0xbbf37a0c	-0.0074303206
145	0xbbd43ae3	-0.0064767464
146	0x3ac9deb4	0.0015401454
147	0xbcb1c61a	-0.021700907
148	0xb846e92c	-4.7424037e-05
149	0x3b0ec50a	0.0021784925
150	0xbc7066be	-0.014672933
151	0xbc4e013c	-0.0125735365
152	0x3bf7a66e	0.0075576818
153	0x3b89282a	0.004185696
154	0x39013373	0.00012321565
155	0x3c344699	0.01100316
156	0xbc91bee4	-0.017791219
157	0xbbb77416	-0.0055985553
158	0x3813de3a	3.5254496e-05
159	0xbc5ac61d	-0.013352898
160	0x3c10b8e6	0.008833146
161	0x3c9bdce6	0.019026231
162	0x3d0d2fdd	0.034469474
163	0x3b7707e4	0.0037693912
164	0xbafd605a	-0.0019331083
165	0x3bf73a05	0.0075447583
166	0x3d1baf48	0.038008958
167	0xbc02733b	-0.007962043
168	0x3c41db74	0.011832107
169	0x3c1fd04a	0.00975425
170	0x3c5ce5c8	0.0134825185
171	0x3c163627	0.009168184
172	0x3bb54f24	0.005533116
173	0x3c2b439c	0.010453131
174	0xbbe136c1	-0.0068729823
175	0x3c837a44	0.016049512
176	0x3b8ee376	0.0043606116
177	0xbb9e31d2	-0.0048277164
178	0xbc7ed694	-0.015554089
179	0x3a3f6140	0.0007300563
180	0x3bd39479	0.0064569083
181	0x3c1da84f	0.009622647
182	0x3bcf2050	0.0063209906
183	0xbc2b7bd1	-0.010466532
184	0x3b135093	0.0022478446
185	0xbae06a10	-0.0017121453
186	0xb9a54a94	-0.00031526817
187	0xbaf393a0	-0.0018583424
188	0xbba6a957	-0.005086105
189	0x3c826a15	0.015919724
190	0x3aa7fad7	0.0012815845
191	0x3c878e7b	0.016547432
192	0x3aeffc81	0.0018309505
193	0x3c213f8d	0.009841812
194	0x3af5f7ae	0.0018765831
195	0x3ae9cd86	0.001783774
196	0x3bca8ccc	0.006181335
197	0xbc0fc7cd	-0.008775664
198	0xbaab5ce5	-0.0013073949
199	0xb9740c9f	-0.00023274355
200	0x3b5a5dd9	0.0033320098
201	0xbba1ed8d	-0.0049416483
202	0x3c7ad907	0.015310532
203	0x3bd06394	0.006359527
204	0x3a85c272	0.0010205044
205	0x3aea6624	0.0017883223
206	0xb89c6b83	-7.458685e-05
207	0xbad3b7bf	-0.0016152783
208	0x3c28e4d2	0.010308461
209	0x3b449ec0	0.003000185
210	0xbc1ca77d	-0.009561417
211	0x3bce7560	0.0063006133
212	0x3c68335f	0.014172404
213	0xbbbe2a3b	-0.005803374
214	0x3c5f56c2	0.0136315245
215	0x3cad247e	0.021135565
216	0xbc26072a	-0.010133544
217	0x3b8fdc34	0.004390264
218	0x3cec84fe	0.02887201
219	0xbc186862	-0.009302231
220	0xbc4f60e2	-0.012657376
221	0xbc52539b	-0.012837316
222	0xbc66347f	-0.014050602
223	0x3a6e5518	0.00090916594
224	0x3be4ef34	0.006986523
225	0xbb977ed2	-0.0046232725
226	0x3a6599c5	0.000875857
227	0x3c116a20	0.0088754
228	0xbc4a4694	-0.012345929
229	0x3c3769a5	0.011194621
230	0x3ad4a2d1	0.001622284
231	0x3be8a133	0.0070992946
232	0xbb5590c4	-0.0032587508
233	0xbb909af3	-0.0044130026
234	0xbafa8e36	-0.0019115868
235	0xbbb65598	-0.005564403
236	0x3b339b7f	0.0027405915
237	0xbade84d8	-0.0016976846
238	0x3a40f0b1	0.00073600846
239	0x3c10dc52	0.008841591
240	0x3b24c6ac	0.0025142832
241	0x3abb71e6	0.0014300912
242	0xbbf45774	-0.0074567143
243	0xbbf7c44b	-0.0075612417
244	0x3c39a569	0.011330941
245	0xbc2840f4	-0.010269392
246	0xbae89e49	-0.0017747368
247	0x3c5f8c1a	0.013644243
248	0xbb0dd2ac	-0.0021640463
249	0x3a2a2294	0.0006490138
250	0xbbbd192f	-0.0057708244
251	0xbc84d984	-0.016217
252	0x3c6dda2d	0.014517349
253	0xbc814969	-0.015782075
254	0x3bf95211	0.00760866
255	0x3c07e940	0.008295357

W1_q i1 [256, 128]
0	0x12	18
1	0x20	32
2	0x19	25
3	0xce	-50
4	0x04	4
5	0xed	-19
6	0x07	7
7	0x07	7
8	0xed	-19
9	0xfb	-5
10	0xdb	-37
11	0xf2	-14
12	0xe5	-27
13	0xef	-17
14	0xf1	-15
15	0x05	5
16	0x01	1
17	0x05	5
18	0x01	1
19	0x48	72
20	0x01	1
21	0xe9	-23
22	0x32	50
23	0x0f	15
24	0x98	-104
25	0x10	16
26	0x11	17
27	0xd2	-46
28	0x05	5
29	0x04	4
30	0x09	9
31	0x04	4
32	0xee	-18
33	0xf8	-8
34	0x01	1
35	0x21	33
36	0xe1	-31
37	0xe8	-24
38	0x22	34
39	0xde	-34
40	0x16	22
41	0xfd	-3
42	0xea	-22
43	0xee	-18
44	0xcf	-49
45	0xfc	-4
46	0xd5	-43
47	0xff	-1
48	0x0c	12
49	0xf9	-7
50	0xf3	-13
51	0x3c	60
52	0xf8	-8
53	0x14	20
54	0xd6	-42
55	0x0d	13
56	0xd3	-45
57	0xf5	-11
58	0xf7	-9
59	0xc6	-58
60	0x0f	15
61	0x05	5
62	0x09	9
63	0xfc	-4
64	0x03	3
65	0x0d	13
66	0xee	-18
67	0xe8	-24
68	0xea	-22
69	0xc4	-60
70	0x12	18
71	0xe4	-28
72	0xdb	-37
73	0x31	49
74	0xfb	-5
75	0xf9	-7
76	0xda	-38
77	0xea	-22
78	0xfa	-6
79	0xf7	-9
80	0x2a	42
81	0x07	7
82	0x10	16
83	0x1a	26
84	0xfa	-6
85	0xdd	-35
86	0x14	20
87	0xed	-19
88	0xd3	-45
89	0x2f	47
90	0xcb	-53
91	0x13	19
92	0x0e	14
93	0x00	0
94	0x01	1
95	0x0d	13
96	0x1c	28
97	0xc2	-62
98	0xd9	-39
99	0x37	55
100	0xd9	-39
101	0x2e	46
102	0x22	34
103	0xe6	-26
104	0x10	16
105	0x1b	27
106	0xfa	-6
107	0xf8	-8
108	0x05	5
109	0x0f	15
110	0x0e	14
111	0x0b	11
112	0xe2	-30
113	0x12	18
114	0xef	-17
115	0x23	35
116	0x29	41
117	0xdc	-36
118	0x19	25
119	0xf8	-8
120	0x23	35
121	0x44	68
122	0x04	4
123	0xdf	-33
124	0x46	70
125	0xe2	-30
126	0x33	51
127	0x1d	29
128	0xfe	-2
129	0x31	49
130	0x35	53
131	0xfa	-6
132	0xd1	-47
133	0x0e	14
134	0xf1	-15
135	0x28	40
136	0xd3	-45
137	0xe0	-32
138	0x20	32
139	0xfd	-3
140	0x4c	76
141	0xfe	-2
142	0xf2	-14
143	0xff	-1
144	0xf3	-13
145	0x1d	29
146	0xe2	-30
147	0xe7	-25
148	0x35	53
149	0xf8	-8
150	0xfc	-4
151	0x51	81
152	0xfd	-3
153	0x15	21
154	0xf7	-9
155	0x10	16
156	0xf2	-14
157	0x1c	28
158	0xf0	-16
159	0xaa	-86
160	0xd6	-42
161	0x22	34
162	0xe9	-23
163	0x18	24
164	0x1c	28
165	0xf0	-16
166	0x09	9
167	0x29	41
168	0x26	38
169	0x0d	13
170	0xe2	-30
171	0xea	-22
172	0x0a	10
173	0x15	21
174	0xb7	-73
175	0xeb	-21
176	0x39	57
177	0xc8	-56
178	0x08	8
179	0xf4	-12
180	0xf4	-12
181	0xd3	-45
182	0xf6	-10
183	0x0f	15
184	0xd7	-41
185	0x14	20
186	0x00	0
187	0xee	-18
188	0xfa	-6
189	0x33	51
190	0xef	-17
191	0xd8	-40
192	0xd4	-44
193	0xd3	-45
194	0x16	22
195	0xf7	-9
196	0xe3	-29
197	0xd9	-39
198	0x26	38
199	0x0d	13
200	0x0f	15
201	0x03	3
202	0x0f	15
203	0x10	16
204	0xe7	-25
205	0x34	52
206	0x44	68
207	0x0b	11
208	0x1a	26
209	0x19	25
210	0x24	36
211	0x02	2
212	0xf2	-14
213	0xaf	-81
214	0x15	21
215	0xed	-19
216	0x23	35
217	0x05	5
218	0x0e	14
219	0xdf	-33
220	0x0f	15
221	0x40	64
222	0xf1	-15
223	0x1f	31
224	0xe8	-24
225	0xd1	-47
226	0xeb	-21
227	0x09	9
228	0x22	34
229	0x14	20
230	0x34	52
231	0x41	65
232	0x1d	29
233	0x11	17
234	0x06	6
235	0xdb	-37
236	0x04	4
237	0xdb	-37
238	0x4f	79
239	0x27	39
240	0x1b	27
241	0x3e	62
242	0xa9	-87
243	0x1f	31
244	0x16	22
245	0xde	-34
246	0x09	9
247	0xdb	-37
248	0x06	6
249	0x15	21
250	0x1f	31
251	0x30	48
252	0x2d	45
253	0xfc	-4
254	0xe5	-27
255	0xea	-22

b1 f4 [128]
0	0x3d05e0b1	0.032684986
1	0xbc2bcd3d	-0.010485944
2	0x3ccc8023	0.024963444
3	0xbb8ba454	-0.004261533
4	0xbc6fcb0e	-0.014635814
5	0x3d2b1054	0.04176362
6	0xbb21b4b1	-0.002467435
7	0xbd0c0668	-0.034185797
8	0x3cabfd87	0.020994915
9	0xbd8070f7	-0.06271546
10	0xbcaa891c	-0.020817332
11	0xbc165ff4	-0.00917815
12	0x3ca9a1fd	0.020707125
13	0x3c99caa5	0.018773386
14	0x3b7227c8	0.003694998
15	0x3c4608ff	0.012087106
16	0xbc867223	-0.016411847
17	0xbae93e27	-0.0017795012
18	0xbc8123ce	-0.015764143
19	0x3c72b551	0.014813737
20	0xbddba9ee	-0.10725771
21	0xbc7dc2d3	-0.015488344
22	0x3c6367e2	0.013879748
23	0xbcc00254	-0.02343861
24	0x3c81e4bd	0.015856141
25	0xbcbab5df	-0.022791801
26	0xbcd94c4b	-0.026525637
27	0x3becf8fe	0.0072318306
28	0xbcf9695c	-0.030445747
29	0x3c050571	0.008118973
30	0xbcfca7f5	-0.030841807
31	0x3d688f78	0.056777447
32	0x3b9120eb	0.004428973
33	0x3b30dd03	0.0026987202
34	0x3c33170e	0.01093079
35	0x3cc08d1d	0.023504788
36	0x3b24d266	0.0025149821
37	0x3d432e26	0.047651432
38	0xbbe66fee	-0.007032386
39	0xbc15ef92	-0.009151356
40	0xbce5035f	-0.027955709
41	0x3bd1bdad	0.006400785
42	0xbd414b9a	-0.04719124
43	0x3d77d833	0.060508918
44	0x3cf83cc0	0.030302405
45	0x3bf87691	0.0075824936
46	0xbc6779ea	-0.014128188
47	0xbb69d9c5	-0.003568278
48	0x3b9fc068	0.0048752315
49	0xbb841eb7	-0.004031982
50	0xbbd76a92	-0.0065739835
51	0xbbcd95a1	-0.0062739407
52	0x3b34c89a	0.0027585388
53	0xbc58ad01	-0.013224841
54	0x3d79a525	0.06094851
55	0xbd893bd7	-0.06700867
56	0x3b59e0ba	0.003324552
57	0xbca10c77	-0.019659264
58	0x3d4195e3	0.047262084
59	0xbcd1a1ef	-0.025589911
60	0xbc4304ce	-0.011903001
61	0x3d7f669e	0.062353723
62	0xbce5d254	-0.028054394
63	0xba4b905a	-0.00077653455
64	0xbdc1d417	-0.09464281
65	0xbc0aa78f	-0.008462801
66	0xbcf7125c	-0.030160122
67	0xbceefb17	-0.029172463
68	0xbd132072	-0.035919614
69	0xbd0a63fc	-0.03378676
70	0x3c52287b	0.012827034
71	0xbbc85c7b	-0.00611454
72	0x3a32aeea	0.00068162254
73	0xbb86c529	-0.004112859
74	0xbc5223e9	-0.012825944
75	0xbcc06cca	-0.023489375
76	0x3c7d61a8	0.015465178
77	0x3b5ccadf	0.0033690257
78	0xbcc147a4	-0.023593731
79	0x3ca64be3	0.020299857
80	0xbbf59d9b	-0.0074955947
81	0xbc43489c	-0.011919167
82	0x3b4a2ec4	0.0030850628
83	0x3c8a2473	0.016863083
84	0x3c1ef54c	0.009702038
85	0x3b816663	0.003948973
86	0x3c850990	0.016239911
87	0x3d879e57	0.06621998
88	0xbb3fb1f6	-0.002925036
89	0x3c308ea3	0.010776195
90	0x3d0e5cfe	0.034756653
91	0xbba8a907	-0.0051471028
92	0xb9913243	-0.00027694003
93	0x3b882247	0.004154477
94	0xbd06a45d	-0.032871593
95	0xbca29870	-0.019848078
96	0x3ba62ca2	0.0050712386
97	0x3c0a20e7	0.008430696
98	0x3c984167	0.018585874
99	0xbce40770	-0.027835578
100	0xbbe57a45	-0.007003101
101	0x3b30c343	0.0026971854
102	0xbccabced	-0.02474829
103	0xbcd1f598	-0.025629804
104	0x3cec63ca	0.028856177
105	0x3cb1b2c1	0.021691682
106	0x3c88bac5	0.016690621
107	0x3cf596ae	0.029979076
108	0xbca647c9	-0.020297902
109	0x3bd320fb	0.0064431406
110	0xbc1c0c5b	-0.00952443
111	0xbc959530	-0.018259615
112	0xbcacc8cc	-0.021091841
113	0x3d0f5052	0.03498871
114	0x3d011ede	0.031523578
115	0xbaa0f1c6	-0.0012279085
116	0xbbc35f18	-0.005962264
117	0x3c42d6f1	0.011892066
118	0xbcbffade	-0.023435052
119	0x3d56ef93	0.05247457
120	0xbcb17cbd	-0.021665925
121	0xbc47bb66	-0.012190675
122	0xbc4879aa	-0.012236038
123	0xbcfd259b	-0.03090172
124	0xbc732519	-0.014840388
125	0xbc1d5d8f	-0.009604826
126	0xbc945d8f	-0.018111018
127	0xbc24aefe	-0.010051487

W2_q i1 [128, 10]
0	0x11	17
1	0xd3	-45
2	0x2c	44
3	0x94	-108
4	0xe5	-27
5	0x2a	42
6	0x06	6
7	0x09	9
8	0x21	33
9	0x1c	28
10	0xe1	-31
11	0xfc	-4
12	0xc7	-57
13	0x10	16
14	0x03	3
15	0xf8	-8
16	0x05	5
17	0xb3	-77
18	0x29	41
19	0x62	98
20	0x1d	29
21	0x09	9
22	0x4a	74
23	0x05	5
24	0xe1	-31
25	0xed	-19
26	0x23	35
27	0xd5	-43
28	0xe2	-30
29	0xf8	-8
30	0x0e	14
31	0x01	1
32	0x04	4
33	0xe7	-25
34	0xe5	-27
35	0x2f	47
36	0xf8	-8
37	0x06	6
38	0xfd	-3
39	0xfe	-2
40	0x0e	14
41	0x15	21
42	0x14	20
43	0xe6	-26
44	0x1d	29
45	0xbd	-67
46	0xe0	-32
47	0x1b	27
48	0x10	16
49	0xf3	-13
50	0xde	-34
51	0x31	49
52	0xee	-18
53	0x02	2
54	0xf2	-14
55	0x05	5
56	0x1b	27
57	0xf8	-8
58	0xeb	-21
59	0x09	9
60	0xcd	-51
61	0xec	-20
62	0x1d	29
63	0x57	87
64	0xe1	-31
65	0xd9	-39
66	0x01	1
67	0xd8	-40
68	0x2d	45
69	0xf8	-8
70	0xdf	-33
71	0x25	37
72	0xcd	-51
73	0xf4	-12
74	0x1c	28
75	0xf5	-11
76	0x42	66
77	0xe5	-27
78	0x1c	28
79	0xd2	-46
80	0xcc	-52
81	0xe5	-27
82	0xe6	-26
83	0x1b	27
84	0xf2	-14
85	0x18	24
86	0xcc	-52
87	0x1f	31
88	0xe7	-25
89	0x19	25
90	0x12	18
91	0xfa	-6
92	0xb9	-71
93	0xd8	-40
94	0xd0	-48
95	0x14	20
96	0x0a	10
97	0xcf	-49
98	0x1b	27
99	0x5d	93
100	0xf7	-9
101	0x36	54
102	0x5d	93
103	0xea	-22
104	0x1c	28
105	0xd3	-45
106	0xd8	-40
107	0x20	32
108	0x0a	10
109	0x1a	26
110	0xda	-38
111	0xee	-18
112	0xe3	-29
113	0x26	38
114	0x0d	13
115	0x25	37
116	0xd7	-41
117	0x24	36
118	0xf3	-13
119	0x10	16
120	0x1d	29
121	0x02	2
122	0x46	70
123	0x05	5
124	0x3b	59
125	0x2c	44
126	0xe2	-30
127	0xf2	-14
128	0xd1	-47
129	0x9e	-98
130	0x11	17
131	0x03	3
132	0x17	23
133	0xe8	-24
134	0xce	-50
135	0x38	56
136	0xcb	-53
137	0xe6	-26
138	0x00	0
139	0xff	-1
140	0xcb	-53
141	0xda	-38
142	0x2f	47
143	0xf8	-8
144	0xcf	-49
145	0x32	50
146	0x0c	12
147	0xc3	-61
148	0x2b	43
149	0x32	50
150	0xe5	-27
151	0x1e	30
152	0xc2	-62
153	0xf2	-14
154	0x3e	62
155	0x17	23
156	0x13	19
157	0x43	67
158	0xa8	-88
159	0x1c	28
160	0xfa	-6
161	0xfc	-4
162	0xec	-20
163	0x28	40
164	0x0a	10
165	0xe8	-24
166	0x2a	42
167	0xdc	-36
168	0x23	35
169	0xee	-18
170	0x26	38
171	0x0e	14
172	0xef	-17
173	0xcf	-49
174	0x05	5
175	0xf6	-10
176	0xfb	-5
177	0xf9	-7
178	0x03	3
179	0xd5	-43
180	0xe1	-31
181	0x1a	26
182	0xf7	-9
183	0x38	56
184	0x0d	13
185	0xf7	-9
186	0x05	5
187	0xfa	-6
188	0x23	35
189	0x04	4
190	0xd6	-42
191	0x1a	26
192	0x14	20
193	0x17	23
194	0x15	21
195	0x1d	29
196	0xe0	-32
197	0x9e	-98
198	0x40	64
199	0x5f	95
200	0xf7	-9
201	0x2c	44
202	0x17	23
203	0xc9	-55
204	0x19	25
205	0xa2	-94
206	0xe4	-28
207	0xff	-1
208	0x5a	90
209	0x38	56
210	0xef	-17
211	0xef	-17
212	0xf1	-15
213	0x01	1
214	0x31	49
215	0xd8	-40
216	0x91	-111
217	0xe1	-31
218	0x0e	14
219	0x36	54
220	0x1f	31
221	0xe3	-29
222	0x07	7
223	0xee	-18
224	0x0d	13
225	0x44	68
226	0xe0	-32
227	0xa8	-88
228	0xda	-38
229	0x36	54
230	0xf4	-12
231	0xff	-1
232	0x3b	59
233	0x1b	27
234	0xe9	-23
235	0xd9	-39
236	0xfe	-2
237	0x54	84
238	0x24	36
239	0xc2	-62
240	0xd3	-45
241	0x23	35
242	0xe1	-31
243	0x14	20
244	0x1f	31
245	0x19	25
246	0xcd	-51
247	0x22	34
248	0xb5	-75
249	0xff	-1
250	0x06	6
251	0xea	-22
252	0xed	-19
253	0x1c	28
254	0x42	66
255	0xdd	-35

b2 f4 [10]
0	0xbd5df4c9	-0.054188523
1	0x3de4765f	0.1115539
2	0x3dd74f94	0.10513225
3	0x3d788758	0.06067595
4	0xbd9c95e8	-0.0764578
5	0x3d93bbda	0.07213564
6	0xbd1dfdbf	-0.03857207
7	0x3e1ddea1	0.15416957
8	0xbe942081	-0.2893105
9	0xbd4e6a31	-0.05039424
