weights_unquantized_int8.npz (npz, 942022 bytes, 6 tensors)

W0 f4 [784, 256]
-0.06769224 0.011612279 0.027550766 0.002832355 -0.0208017 -0.0076281223 -0.05430183 -0.10215753
-0.028784173 -0.07719003 -0.11584747 -0.035556592 0.105300754 0.026777415 0.037313685 -0.010679649
0.02890021 0.08422374 0.02296919 -0.03471709 0.07028085 -0.011510146 0.013257217 -0.038286917
0.049310558 -0.0086788405 -0.009172432 -0.04709494 -0.015487766 -0.087932356 -0.013365051 0.014176154
0.0035414721 0.04695605 0.03485912 0.021891966 -0.028735746 -0.00065140874 0.008894605 0.01421922
0.03477389 -0.045740142 -0.028169228 -0.010518017 0.09712219 0.034439802 -0.035674304 -0.053067364
-0.04673152 -0.093990736 0.081424534 0.06047828 -0.058783364 -0.030738413 -0.042997047 -0.06978888
0.0070908996 -0.05182591 -0.012601752 0.023522519 0.03778744 -0.083667524 0.018885663 0.015886758
0.05602678 0.010181571 0.0022283774 -0.00838364 -0.052195676 0.022172693 -0.06210201 -0.04749371
-0.015274968 -0.0023585758 -0.0045468 0.020327862 -0.010034962 -0.032137997 -0.020468248 -0.09496231
-0.01569518 0.04207747 -0.036956232 -0.021097206 -0.008507898 0.004043933 0.025240975 -0.028642604
-0.0009455228 0.0020872278 0.024300195 0.030177439 0.06950721 -0.031684645 0.014236638 0.011993316
-0.0022073144 0.03546939 0.031126156 -0.08961802 0.03246575 0.04983172 0.028787583 0.019467965
-0.09080142 0.011086507 0.042469546 0.01835498 0.07829064 0.05429241 -0.031037625 -0.062888496
-0.08058514 -0.010160936 -0.056565017 -0.03792025 0.018071074 0.02784924 -0.0047403104 0.07474414
0.016161995 0.056738533 -0.009144686 0.021883894 0.062050186 0.0123667065 -0.014866177 0.076798
0.037783395 0.019813223 -0.01563585 -0.011435453 -0.0053477967 -0.11098603 0.011602733 0.00497113
0.072405525 -0.048253663 0.06146455 0.012894437 -0.0469318 -0.07756862 -0.0039557414 0.021388445
0.014893656 0.0531818 0.0026235413 0.031190965 0.015833331 -0.0013276567 -0.0039722887 0.05237927
0.115514256 -0.15420307 -0.013116875 -0.03242575 -0.07829654 0.01363225 0.0937774 0.045461543
-0.06456881 0.07395768 -0.050402407 -0.07868271 -0.026834575 -0.02526821 -0.045454286 0.05605764
0.038684394 -0.025150884 -0.06716386 0.0044993204 -0.040285256 -0.022527141 -0.052180376 0.00620874
-0.016250378 -0.05894243 -0.012262747 0.003499726 0.08437332 0.02541458 -0.0011704717 -0.04872354
-0.015577586 0.046780843 -0.063538164 0.03998512 0.08690638 0.06225511 -0.008197026 0.028991425
-0.0052505936 -0.01872678 -0.010705769 -0.012258421 0.03396922 0.026008328 0.034963515 -0.047495548
-0.084892355 -0.044681232 -0.049631346 -0.06504289 -0.071643196 0.06106405 0.09282045 -0.05245294
0.0339751 0.02147337 0.10903994 -0.037473653 -0.020358505 -0.05473836 -0.050329763 -0.012227898
0.09629519 -0.118683584 0.021117166 0.089893095 0.0061892327 -0.006955088 0.0091710435 -0.019638523
0.04616035 0.003800222 0.06865494 -0.007701591 0.04923209 -0.005433095 0.09701321 0.007911737
-0.075824216 0.0022175075 -0.038027093 0.07817518 0.0927628 -0.027375443 -0.004788181 0.038975753
-0.053762835 -0.02131906 -0.03115533 -0.052774664 -0.0875156 0.021379597 -0.05472181 0.015936766
0.00026886727 -0.014740833 -0.05044289 -0.0076835984 0.024755765 -0.019424735 -0.04341116 -0.06866171
00000000: 3ba2 8abd 6e41 3e3c 25b2 e13c 089f 393b
00000010: 5468 aabc 54f5 f9bb 986b 5ebd f837 d1bd
00000020: c9cc ebbc ce15 9ebd 7041 edbd caa3 11bd
00000030: eca7 d73d 4f5c db3c 3cd6 183d b2f9 2ebc
00000040: 22c0 ec3c 7f7d ac3d e229 bc3c 8233 0ebd
00000050: 68ef 8f3d 0d95 3cbc cc34 593c bed2 1cbd
00000060: def9 493d b231 0ebc f847 16bc a0e6 40bd
00000070: 66c0 7dbc e115 b4bd 16f9 5abc 1943 683c
00000080: 0b18 683b fd54 403d 70c8 0e3d c856 b33c
00000090: 3a67 ebbc 4dc3 2aba adba 113c bbf7 683c
000000a0: 116f 0e3d 045a 3bbd 27c3 e6bc c353 2cbc
000000b0: 00e8 c63d c010 0d3d 381f 12bd 2a5d 59bd
000000c0: 8d69 3fbd 377e c0bd e8c1 a63d 13b8 773d
000000d0: d3c6 70bd 20cf fbbc ac1d 30bd 79ed 8ebd
000000e0: c75a e83b 6847 54bd 9477 4ebc 4cb2 c03c
000000f0: 01c7 1a3d e159 abbd 1bb6 9a3c f224 823c
00000100: 567c 653d 9bd0 263c f809 123b 895b 09bc
00000110: 22cb 55bd 82a3 b53c ad5e 7ebd c488 42bd
00000120: dc43 7abc 5692 1abb 53fd 94bb 9e86 a63c
00000130: ae69 24bc 22a3 03bd 07ad a7bc 997b c2bd
00000140: 2e93 80bc 6d59 2c3d 6b5f 17bd 0cd4 acbc
00000150: b664 0bbc f882 843b 29c6 ce3c e5a3 eabc
00000160: f6dc 77ba dfc9 083b 3411 c73c ad36 f73c
00000170: cc59 8e3d c2c7 01bd ca40 693c 9d7f 443c
00000180: 97a8 10bb 5a48 113d 48fc fe3c a789 b7bd
00000190: cefa 043d 581c 4c3d f0d3 eb3c 487b 9f3c
000001a0: 18f6 b9bd 2ea4 353c 8cf4 2d3d 2f5d 963c
000001b0: d856 a03d b861 5e3d 9e42 febc afcb 80bd
000001c0: d209 a5bd 0e7a 26bc b8b0 67bd 4452 1bbd
000001d0: ca09 943c 1724 e43c 9b54 9bbb 7513 993d
000001e0: 2966 843c aa66 683d 98d3 15bc da45 b33c
000001f0: 5628 7e3d ba9d 4a3c 4491 73bc 4548 9d3d
00000200: c3c2 1a3d 574f a23c c116 80bc c45b 3bbc
00000210: 923c afbb a54c e3bd 6419 3e3c dce4 a23b
00000220: 5949 943d a2a5 45bd 41c2 7b3d 3043 533c
00000230: 8f3b 40bd 4cdc 9ebd 2a9f 81bb d236 af3c
00000240: 8504 743c 29d5 593d b8ef 2b3b 3284 ff3c
00000250: e7b4 813c c404 aeba f929 82bb a58b 563d
00000260: bd92 ec3d 69e7 1dbe 29e8 56bc ddd0 04bd
00000270: f059 a0bd cd59 5f3c 5e0e c03d e235 3a3d
00000280: a73c 84bd 2077 973d c172 4ebd 6724 a1bd
00000290: 2fd4 dbbc 47ff cebc 462e 3abd b29c 653d
000002a0: 8773 1e3d 3a09 cebc 358d 89bd 096f 933b
000002b0: 2702 25bd d78a b8bc 17bb 55bd b072 cb3b
000002c0: 831f 85bc 9e6d 71bd b0e9 48bc a95b 653b
000002d0: ebcb ac3d 3d32 d03c 836a 99ba 5692 47bd
000002e0: 2239 7fbc 459d 3f3d 4c20 82bd 70c7 233d
000002f0: f9fb b13d 37ff 7e3d d24c 06bc 6d7f ed3c
00000300: 2c0d acbb e768 99bc 4067 2fbc 8bd7 48bc
00000310: 4f23 0b3d 6b0f d53c e735 0f3d b18a 42bd
00000320: 0bdc adbd ab03 37bd 3d4a 4bbd 3535 85bd
00000330: abb9 92bd 4c1e 7a3d a618 be3d e5d8 56bd
00000340: 7929 0b3d ece8 af3c 5550 df3d f97d 19bd
00000350: e1c6 a6bc 5535 60bd 9526 4ebd 8657 48bc
00000360: 6a36 c53d 6110 f3bd e8fd ac3c df19 b83d
00000370: 0ccf ca3b 82e7 e3bb 2542 163c f8e0 a0bc
00000380: a312 3d3d 250d 793b f69a 8c3d a15d fcbb
00000390: 97a7 493d 1b08 b2bb ddae c63d 3ba0 013c
000003a0: ba49 9bbd 9a53 113b 4cc2 1bbd 4f1a a03d
000003b0: 6cfa bd3d 7742 e0bc 2ce6 9cbb 0aa5 1f3d
000003c0: 6b36 5cbd 4fa5 aebc 7639 ffbc 3f2a 58bd
000003d0: 613b b3bd 4424 af3c fa23 60bd d28d 823c
000003e0: c1f6 8c39 8983 71bc 349d 4ebd b2c6 fbbb
000003f0: 9acc ca3c 9f20 9fbc e7cf 31bd 839e 8cbd

b0 f4 [256]
0.018322142 -0.0073286975 -0.0041209315 -0.000985434 0.008100646 0.012619837 -0.004623241 0.0007870176
0.0050896527 0.01406277 0.0015428095 0.009223231 0.0019742248 0.0016104972 0.0048678718 -0.0067623607
0.013133557 -0.021020068 0.009841588 -0.009301927 0.0067124884 -0.007944263 -0.015676543 -0.0034557711
-0.0013288937 0.00023256318 0.004863445 -0.0028440717 -0.0072737657 0.008672913 -0.0014621749 -0.006048657
-0.0037442949 -0.0017124694 0.0022320005 -0.02475281 0.0030319178 -0.01431708 0.01450439 -0.0024319186
-0.010495212 -0.00824192 -0.005498789 0.0013876549 -0.0017988017 -0.0051207407 -0.003941392 -0.0030051512
-0.0011961306 -0.016533807 -0.008665085 0.0013641036 -0.019286588 -0.0014969057 -0.014689228 0.013468098
-0.013640952 -0.0068892883 -0.009590985 0.0011729248 0.009934782 0.0053037475 0.0013883613 0.008077973
-0.010461273 -0.016647609 0.025058735 0.001217029 0.017014794 -0.0029510686 0.010927411 0.0009876353
0.0019235465 -0.008242342 0.019370802 0.0013121836 0.009001116 -0.005633407 -0.0007022344 0.005397528
-0.0003948455 -0.012268573 0.0153103825 0.00031655683 -0.0066650626 -0.0038466293 0.009615741 0.009107562
-0.002532577 0.010311154 0.0021907077 -0.010452907 -0.007976129 -0.0038374793 0.0036567617 0.003078865
0.0053236657 -0.01956761 -0.007954629 0.0010943747 0.0038224552 0.005008542 0.009721406 0.015720194
0.005306622 0.010047022 -0.008316759 0.005610452 0.00865724 -0.0035901035 0.014854356 0.0054980046
-0.005511915 0.00022008622 0.0016246893 -0.016582219 -0.006407693 0.005602952 -0.0067870454 0.004779016
0.017868077 -0.0007481141 -0.027775971 0.02396537 -0.013747144 -0.0019250779 0.0046492256 -0.013312219
0.0065512443 -0.004945359 -0.012816722 -0.018013252 0.004197334 -0.004650811 0.018094584 0.007445804
-0.0028324656 -0.0006467101 -0.003841712 -0.0054765483 0.00040607777 0.007916067 0.008087164 -0.0044695274
-0.00977075 -0.004926213 -0.0021389246 -0.022038678 0.0008413682 0.004991121 -0.018613834 -0.013685402
0.006188727 0.0040673693 0.001306501 0.015793664 -0.016542101 -0.0054169674 -0.0032316893 -0.016078692
0.011693139 0.016816398 0.033792365 0.0030473573 0.003955649 0.010744116 0.039154135 -0.009324229
0.007132496 0.0076952362 0.007840731 0.0021598637 0.004002933 0.009344819 -0.001147402 0.013064119
0.0046912767 0.018280294 -0.015434115 0.0015637238 0.006477503 0.0021944933 0.005731468 -0.009601559
0.0021568656 -0.0061863437 0.0013019758 -0.0028413758 -0.0031544117 0.0117807 -0.0005542577 0.007478169
0.003206223 0.0014989575 0.0039956784 0.0064184177 0.0055972305 -0.011575183 -0.0071613924 -0.008451966
0.0071815266 -0.008245882 0.01683094 0.0047298428 0.0029162783 0.008231875 -0.0028632404 0.000467229
0.008383321 0.0068148766 -0.012025225 0.008806081 0.011217064 -0.0049663177 0.012384581 0.022550752
-0.010903512 0.0037034103 0.02186665 -0.009010886 -0.015732648 -0.010008395 -0.0137156565 0.023234615
0.006526292 -0.0014178846 0.0033395377 0.010158632 -0.009611296 0.008355309 0.0069268416 -0.002340748
-0.003465452 -0.0024419362 -0.0056326687 -0.0057390197 -0.00092085556 -0.00063076545 0.00035851213 0.0104785925
0.0045512705 0.005599229 -0.0064713773 -0.007864491 0.00919095 -0.007748319 -0.0004803519 0.01686132
-0.0034975877 -0.0020436915 -0.0058152257 -0.016851578 0.009620547 -0.009322153 0.0069382093 0.010989446
00000000: 5118 963c 9225 f0bb e108 87bb ae29 81ba
00000010: 92b8 043c 6fc3 4e3c 8e7e 97bb db4f 4e3a
00000020: 1ac7 a63b 8867 663c 1938 ca3a 091d 173c
00000030: ff61 013b 5217 d33a ab82 9f3b cb96 ddbb
00000040: 212e 573c 4732 acbc 9d3e 213c 1c67 18bc
00000050: 6ff4 db3b a728 02bc 186c 80bc 387a 62bb
00000060: 462e aeba 34dc 7339 895d 9f3b 9b63 3abb
00000070: c558 eebb d518 0e3c 73a6 bfba d033 c6bb
00000080: d862 75bb f074 e0ba c146 123b 68c6 cabc
00000090: 24b3 463b 3092 6abc d2a3 6d3c d360 1fbb
000000a0: 1cf4 2bbc 1e09 07bc 2f2f b4bb f9e1 b53a
000000b0: c5c5 ebba e3cb a7bb cb26 81bb 12f2 44bb
000000c0: 7cc7 9cba e871 87bc 00f8 0dbc b9cb b23a
000000d0: e8fe 9dbc d233 c4ba 16ab 70bc 4ca9 5c3c
000000e0: 4d7e 5fbc 8abf e1bb 8223 1dbc d3bc 993a
000000f0: 7fc5 223c 0fcb ad3b adf9 b53a 7959 043c
00000100: c265 2bbc 9160 88bc fa47 cd3c b884 9f3a
00000110: 9c62 8b3c b766 41bb e208 333c 8b73 813a
00000120: 831f fc3a e30a 07bc 84af 9e3c 93fd ab3a
00000130: 6b79 133c 7198 b8bb 2716 38ba bfdd b03b
00000140: 4403 cfb9 2002 49bc 66d8 7a3c 8af7 a539
00000150: 9966 dabb bb17 7cbb 578b 1d3c e237 153c
00000160: 97f9 25bb 1df0 283c fa91 0f3b ab42 2bbc
00000170: 4fae 02bc 387e 7bbb 48a6 6f3b c8c6 493b
00000180: 2572 ae3b 414c a0bc 2254 02bc 1f71 8f3a
00000190: 2882 7a3b b21e a43b 8846 1f3c a3c7 803c
000001a0: 2ce3 ad3b 449c 243c 0443 08bc e2d7 b73b
000001b0: 19d7 0d3c f147 6bbb af5f 733c 9b28 b43b
000001c0: 4b9d b4bb f2c6 6639 87f3 d43a 6fd7 87bc
000001d0: a0f7 d1bb f898 b73b dd65 debb 4b99 9c3b
000001e0: 1360 923c 161d 44ba 6f8a e3bc 0653 c43c
000001f0: b33b 61bc e552 fcba 8858 983b 7e1b 5abc
00000200: d2ab d63b ae0c a2bb 3afd 51bc 8790 93bc
00000210: ca89 893b d565 98bb 183b 943c eefb f33b
00000220: e3a0 39bb fb87 29ba 3bc5 7bbb 9e74 b3bb
00000230: d6e6 d439 64b2 013c 0680 043c 1d75 92bb
00000240: 7f15 20bc 126c a1bb 332d 0cbb 758a b4bc
00000250: 448f 5c3a 8f8c a33b 0a7c 98bc bd38 60bc
00000260: ceca ca3b 9147 853b e63e ab3a b761 813c
00000270: 4d83 87bc d180 b1bb c0ca 53bb 76b7 83bc
00000280: 9494 3f3c 8bc2 893c dd69 0a3d 2cb6 473b
00000290: 649e 813b 1708 303c 1660 203d a7c4 18bc
000002a0: b7b7 e93b 5228 fc3b 6976 003c 808c 0d3b
000002b0: 092b 833b 031b 193c 6c64 96ba e30a 563c
000002c0: 48b9 993b 8ec0 953c 5fdf 7cbc ddf5 cc3a
000002d0: 3c41 d43b 7dd1 0f3b 0acf bb3b db4f 1dbc
000002e0: 335a 0d3b d0b6 cabb 0fa7 aa3a 6036 3abb
000002f0: 3fba 4ebb d603 413c 9b4b 11ba 6e0b f53b
00000300: 7f1f 523b ab78 c43a 2eee 823b 9751 d23b
00000310: f968 b73b d6a5 3dbc 1daa eabb 1d7a 0abc
00000320: 0353 eb3b bc19 07bc 0ae1 893c ccfc 9a3b
00000330: 081f 3f3b fcde 063c 34a5 3bbb 6af6 f439
00000340: 325a 093c 544f df3b 7305 45bc 6147 103c
00000350: c7c7 373c 7ebc a2bb b3e8 4a3c 5bbc b83c
00000360: a5a4 32bc eab4 723b b021 b33c 65a2 13bc
00000370: c1e1 80bc 40fa 23bc a2b7 60bc 8556 be3c
00000380: 81da d53b 50d8 b9ba 25dc 5a3b 6470 263c
00000390: b278 1dbc b5e4 083c 8ffa e23b 3c67 19bb
000003a0: a31c 63bb e408 20bb 4092 b8bb 630e bcbb
000003b0: 9265 71ba f459 25ba aff6 bb39 67ae 2b3c
000003c0: d322 953b bd79 b73b d90d d4bb 11da 00bc
000003d0: a395 163c 9ce5 fdbb bed7 fbb9 c020 8a3c
000003e0: c937 65bb 74ef 05bb a68d bebb 520c 8abc
000003f0: 809f 1d3c f2bb 18bc eb59 e33b 140d 343c

W1 f4 [256, 128]
0.07239265 0.079365514 0.026131658 -0.19865376 0.030582374 -0.03744751 0.025487643 0.015931554
-0.08199815 -0.010953257 -0.11595891 -0.039837435 -0.084792346 -0.09116718 -0.027405601 0.027600281
-0.017061513 0.055481195 -0.0077219335 0.24353859 0.017986432 -0.089785464 0.15199195 0.054826163
-0.36612955 0.0533351 0.07836141 -0.14953747 0.013034273 0.022941997 0.05554738 0.011852987
-0.07387703 -0.036524195 0.0056881327 0.11481786 -0.1055696 -0.085399725 0.13272849 -0.12852223
0.08123947 -0.022731427 -0.08089256 -0.051623058 -0.08022237 0.0132185 -0.15510462 0.00044927248
0.051146835 -0.016286101 -0.024450436 0.19075085 6.229511e-06 0.04902373 -0.15067165 0.046140254
-0.16739416 -0.027973711 0.014573321 -0.20138839 0.04513407 0.034765255 0.02649188 -0.003255328
0.011339149 0.03748739 -0.05850076 -0.09114548 -0.06597016 -0.21725735 0.05911791 -0.08239842
-0.12628892 0.18580575 -0.039977055 -0.005852214 -0.14570256 -0.14441653 -0.018580422 -0.03461323
0.13010551 -0.0019192332 0.050555922 0.085406646 -0.02853005 -0.13142912 0.050961535 -0.061762314
-0.15733457 0.14950022 -0.1716198 0.06509994 0.022297999 0.009412552 -0.002667751 0.04410983
0.13719192 -0.16680938 -0.14892481 0.17202385 -0.13884366 0.16572262 0.12727337 -0.084823996
0.01704144 0.10598602 -0.024229404 -0.040902365 0.013874456 0.05242481 0.050440542 0.066879995
-0.10483732 0.06479873 -0.06936643 0.18053046 0.147624 -0.10392532 0.08112329 -0.05295227
0.12617862 0.24813046 -0.021173738 -0.109716415 0.2961455 -0.09582888 0.19015937 0.09491436
-0.007975747 0.15328525 0.18343724 -0.017343488 -0.17206049 0.0385711 -0.064387426 0.09435716
-0.1280035 -0.11000361 0.108019 -0.009323069 0.24582237 -0.003713079 -0.07695681 -0.011536783
-0.04055742 0.07478217 -0.14752977 -0.09885031 0.14210945 -0.015266718 -0.0011865108 0.24387954
-0.012632889 0.06293353 -0.028235914 0.068646625 -0.048261914 0.09844165 -0.045482337 -0.27947226
-0.14915136 0.107043795 -0.072588615 0.08403959 0.10089476 -0.044991523 0.017677722 0.13086519
0.13913982 0.045930564 -0.097691506 -0.07416816 0.01761157 0.06130885 -0.22544771 -0.05493695
0.1878224 -0.20696183 0.043923832 -0.04524073 -0.049311172 -0.16348863 -0.017257959 0.056383617
-0.11110713 0.08749327 -0.0021793193 -0.05506519 -0.027767103 0.15612486 -0.048555806 -0.14223821
-0.12430009 -0.13850757 0.09377708 -0.022540826 -0.088117026 -0.09963926 0.14711684 0.035937283
0.06722924 0.037622936 0.07128898 0.0121003315 -0.08552451 0.08609596 0.216433 0.053085458
0.09510906 0.062494144 0.11241448 0.0035279312 -0.034406766 -0.24754721 0.075505964 -0.07251904
0.11803813 0.039497677 0.058903236 -0.0882663 0.10553084 0.1865465 -0.04381676 0.08583079
-0.058382817 -0.16188465 -0.081810296 0.025482353 0.11736477 0.0523774 0.18159962 0.22393584
0.11045959 0.0712829 0.0145023875 -0.11595439 0.025705894 -0.13394716 0.24380441 0.1230423
0.074485265 0.20914517 -0.29382136 0.12590322 0.06647512 -0.11132063 0.044503924 -0.12113856
0.0370259 0.05867915 0.09801734 0.15817623 0.1159268 0.013361857 -0.1028179 -0.091578506
00000000: 9942 943d 638a a23d 0f12 d63c e46b 4bbe
00000010: e387 fa3c 8f62 19bd 76cb d03c e482 823c
00000020: a5ee a7bd 4a75 33bc dd7b edbd 942c 23bd
00000030: 9ca7 adbd dcb5 babd b681 e0bc fc19 e23c
00000040: 96c4 8bbc 4040 633d 4608 fdbb 2e62 793e
00000050: 4858 933c 71e1 b7bd c7a3 1b3e 6691 603d
00000060: 5575 bbbe e875 5a3d f27b a03d 5a20 19be
00000070: b48d 553c dbf0 bb3c a685 633d 0833 423c
00000080: d74c 97bd 659a 15bd 8463 ba3b a025 eb3d
00000090: e034 d8bd 0de6 aebd fae9 073e 559b 03be
000000a0: e160 a63d 4237 babc 00ab a5bd b372 53bd
000000b0: a04b a4bd 6892 583c bfd3 1ebe 558c eb39
000000c0: 587f 513d 6e6a 85bc 484c c8bc 3154 433e
000000d0: 1807 d136 1bcd 483d ab49 1abe 90fd 3c3d
000000e0: 6069 2bbe 2029 e5bc f0c4 6e3c c238 4ebe
000000f0: 81de 383d 0366 0e3d 8005 d93c 5757 55bb
00000100: d7c7 393c 618c 193d 7e9e 6fbd 7baa babd
00000110: 5d1b 87bd b678 5ebe 9f25 723d 81c0 a8bd
00000120: e251 01be dd43 3e3e fbbe 23bd eec3 bfbb
00000130: 0d33 15be ede1 13be f835 98bc 9ac6 0dbd
00000140: 613a 053e c88e fbba ba13 4f3d aee9 ae3d
00000150: dab7 e9bc 5b95 06be 0bbd 503d 7bfa 7cbd
00000160: 501c 21be 9616 193e 1abd 2fbe 1e53 853d
00000170: 4baa b63c 1b37 1a3c 6fd5 2ebb 82ac 343d
00000180: 0a7c 0c3e 14d0 2abe bf7f 18be 0527 303e
00000190: 082d 0ebe 31b3 293e f353 023e 34b8 adbd
000001a0: 7d9a 8b3c 330f d93d be7c c6bc 3d89 27bd
000001b0: b051 633c 66bb 563d be9a 4e3d 61f8 883d
000001c0: f3b4 d6bd 32b5 843d fd0f 8ebd fadc 383e
000001d0: bf2a 173e ccd6 d4bd f823 a63d 7be4 58bd
000001e0: f834 013e e915 7e3e 8c74 adbc 00b3 e0bd
000001f0: 62a0 973e ef41 c4bd 23b9 423e 7662 c23d
00000200: b5ac 02bc cff6 1c3e f9d6 3b3e ee13 8ebc
00000210: a030 30be bbfc 1d3d 8edd 83bd 543e c13d
00000220: 5913 03be 9349 e1bd 1139 dd3d c9bf 18bc
00000230: dcb8 7b3e 2157 73bb 889b 9dbd c604 3dbc
00000240: 8a1f 26bd 6527 993d 0b12 17be 0872 cabd
00000250: 2485 113e 4221 7abc b284 9bba 8fbb 793e
00000260: 2dfa 4ebc 4be3 803d 014f e7bc 9a96 8c3d
00000270: 49ae 45bd c79b c93d b04b 3abd fd16 8fbe
00000280: 22bb 18be c739 db3d 57a9 94bd f31c ac3d
00000290: e9a1 ce3d 0849 38bd dfd0 903c 8601 063e
000002a0: ab7a 0e3e b021 3c3d 7c12 c8bd 7ae5 97bd
000002b0: 2446 903c fd1e 7b3d c4db 66be 9105 61bd
000002c0: 8454 403e cded 53be 7ae9 333d 584e 39bd
000002d0: 83fa 49bd 9069 27be 9060 8dbc 82f2 663d
000002e0: 238c e3bd ac2f b33d e9d2 0ebb 098c 61bd
000002f0: d677 e3bc 32df 1f3e 74e2 46bd e5a6 11be
00000300: 0c91 febd eed4 0dbe 330e c03d 8aa7 b8bc
00000310: b376 b4bd ab0f ccbd cca5 163e f932 133d
00000320: 7caf 893d 821a 1a3d f5ff 913d 7840 463c
00000330: 7927 afbd 1453 b03d 9da0 5d3e 2370 593d
00000340: 8ac8 c23d dcf9 7f3d 9039 e63d dd34 673b
00000350: 1cee 0cbd 047d 7dbe dfa2 9a3d dd84 94bd
00000360: fabd f13d 51c8 213d 8544 713d f6c4 b4bd
00000370: 8e20 d83d 0c06 3f3e 3479 33bd 0ec8 af3d
00000380: d222 6fbd 17c5 25be 288c a7bd 5ec0 d03c
00000390: f15c f03d af89 563d 40f5 393e 704f 653e
000003a0: a338 e23d c5fc 913d 6c9b 6d3c 7f79 edbd
000003b0: 2b95 d23c 7229 09be dda7 793e 9afd fb3d
000003c0: bb8b 983d 272a 563e c16f 96be c6ec 003e
000003d0: 1c24 883d 12fc e3bd bf49 363d 7e17 f8bd
000003e0: 78a8 173d 8c59 703d 51bd c83d f3f8 213e
000003f0: 086b ed3d b1eb 5a3c 3192 d2bd 838d bbbd

b1 f4 [128]
0.034701142 -0.0033319502 0.0043656835 0.007111878 -0.02369258 0.045440026 -0.003896315 -0.0206908
0.0076050404 -0.049760558 -0.020422336 -0.01035662 0.019738 0.018125713 0.00470163 0.014712864
-0.017540796 -0.01973579 0.018266303 0.02602725 -0.091126926 -0.00951096 0.0070361835 -0.03172056
0.014499388 -0.022431545 -0.026244877 -0.0031849646 -0.031391744 0.015128018 -0.014869506 0.05612007
-0.0051627182 0.006439569 0.015474857 0.016242133 0.00179613 0.0489616 -0.008992158 0.0045127035
-0.029056251 0.010304629 -0.053470507 0.0596156 -0.025031239 -0.017130714 -0.01556454 -0.011135098
7.894154e-05 -0.008014411 0.0041137934 -0.0031558787 0.03180981 -0.009652528 0.046176046 -0.069289654
0.012403723 -0.01545823 0.048776235 -0.013414357 -0.0032709222 0.055123903 -0.02659928 0.00081814796
-0.07681987 0.0030841085 -0.037254296 -0.017203694 -0.030098988 -0.046130456 0.019451458 -0.005495078
0.0022823352 -0.005806637 -0.0015932849 -0.02373319 0.011762197 -0.019176094 -0.028034264 0.015409677
-0.0037227776 -0.020830937 -0.004716035 0.01820148 0.0017922436 0.0086476635 0.020120371 0.05828312
0.0030228961 0.017732222 0.034259174 -0.0060376385 -0.005750751 -0.002101471 -0.027155578 -0.009711968
0.0045157955 0.016877837 0.019453121 -0.040305577 -0.009540332 0.008629148 -0.031276632 -0.028921038
0.010085537 0.04362612 0.0187279 0.026604408 -0.016506806 -0.0031290136 -0.009199917 -0.010833208
-0.007869206 0.03770227 0.025634173 0.010583092 -0.0028970905 0.02125269 -0.019877963 0.047423977
-0.0122649 -0.005509927 -0.0062501826 -0.03006752 0.005146354 0.003482983 -0.010306235 0.003428349
00000000: c922 0e3d d95c 5abb 020e 8f3b c20a e93b
00000010: f116 c2bc 521f 3a3d 5159 7fbb c17f a9bc
00000020: b433 f93b bad1 4bbd be4c a7bc d0ae 29bc
00000030: 96b1 a13c 607c 943c 2210 9a3b 390e 713c
00000040: b7b1 8fbc f4ac a1bc 37a3 953c 1937 d53c
00000050: c1a0 babd dcd3 1bbc c98f e63b 6bed 01bd
00000060: d78e 6d3c 5cc2 b7bc 7fff d6bc d7ba 50bb
00000070: a194 00bd 82db 773c 3a9f 73bc 29de 653d
00000080: 052c a9bb 0503 d33b 418a 7d3c 390e 853c
00000090: 1f6c eb3a f58b 483d d853 13bc 4ddf 933b
000000a0: 6007 eebc bfd4 283c e403 5bbd 7d2f 743d
000000b0: 500e cdbc b655 8cbc 6a02 7fbc fc6f 36bc
000000c0: 6b8d a538 e04e 03bc 00cd 863b dcd2 4ebb
000000d0: 014b 023d a325 1ebc 1823 3d3d bce7 8dbd
000000e0: fc38 4b3c 8444 7dbc 97c9 473d e4c7 5bbc
000000f0: f85c 56bb 9ac9 613d bce6 d9bc fb78 563a
00000100: bc53 9dbd c11e 4a3b f697 18bd c3ee 8cbc
00000110: 2792 f6bc 4af3 3cbd aa58 9f3c 0e10 b4bb
00000120: 3b93 153b 9a45 bebb c5d5 d0ba 1b6c c2bc
00000130: 3bb6 403c 2f17 9dbc 1da8 e5bc df78 7c3c
00000140: d8f9 73bb a4a5 aabc f888 9abb 451b 953c
00000150: b7e9 ea3a eeae 0d3c 7ad3 a43c 48ba 6e3d
00000160: c81b 463b 2a43 913c 5953 0c3d 62d7 c5bb
00000170: cc70 bcbb d5b8 09bb 6075 debc f21e 1fbc
00000180: 3df9 933b 6443 8a3c 275c 9f3c 7617 25bd
00000190: 0d4f 1cbc 4561 0d3c ed1b 00bd d0eb ecbc
000001a0: cf3d 253c 4db1 323d 416b 993c 7df1 d93c
000001b0: 4839 87bc 2310 4dbb 40bb 16bc c57d 31bc
000001c0: d8ed 00bc b26d 1a3d c2fe d13c b564 2d3c
000001d0: 1ddd 3dbb 1f1a ae3c 1cd7 a2bc a53f 423d
000001e0: b8f2 48bc 9e8c b4bb 55ce ccbb 2950 f6bc
000001f0: bfa2 a83b c242 643b 7cdb 28bc 27ae 603b

W2 f4 [128, 10]
0.17554799 -0.31926364 0.42852655 -0.8887583 -0.18261372 0.18298088 -0.0064718295 0.10463435
0.2676602 0.23322155 -0.19864112 0.002679785 -0.4725546 0.18600817 0.02642379 -0.013757425
-0.0358087 -0.68553215 0.22309303 0.8368463 0.18144767 0.10135007 0.63564336 0.07104491
-0.29562232 0.02534835 0.21773612 -0.35814208 -0.18882766 -0.20536424 0.00568936 0.08749059
0.13035667 -0.091876164 -0.33968833 0.45317617 -0.045406234 0.071248814 -0.09433993 -0.13611306
0.11592271 0.13988872 0.07198144 -0.17609762 0.14618076 -0.6332394 -0.28628495 0.22583847
0.34578633 -0.051686905 -0.20437144 0.42575064 -0.11963892 -0.0010753854 -0.25589973 -0.0017626553
0.33519077 -0.007736814 -0.21794961 0.016092222 -0.5501795 -0.13436233 0.24629046 0.53034514
-0.1967702 -0.23801626 -0.028310223 -0.26836374 0.22221154 0.16156197 -0.28529796 0.3404515
-0.40705487 -0.06186894 0.18352777 -0.22013822 0.51789486 -0.2014748 0.27920637 -0.32701245
-0.4305569 -0.269902 -0.27869162 0.2483843 -0.03534175 0.08584208 -0.48117903 0.29546088
-0.14517507 0.2044666 0.033507194 -0.01095473 -0.5321235 -0.25255004 -0.3433256 0.06765503
0.014698929 -0.34744456 0.25346392 0.71178854 -0.0914827 0.5203644 0.74836177 -0.18902056
0.2440132 -0.4005358 -0.37041557 0.3232065 0.09184034 0.27343184 -0.29144254 -0.19865952
-0.21755102 0.21254265 0.099353775 0.3101378 -0.38874954 0.31589335 -0.05268738 0.20112762
0.17646459 -0.007872567 0.64200985 0.13458458 0.42007038 0.34127343 -0.2145778 -0.10846623
-0.35581794 -0.82359713 0.12393853 0.11733568 0.21555573 -0.1520401 -0.44415733 0.4945064
-0.3954363 -0.27184096 -0.19724442 0.014840377 -0.38488892 -0.31988895 0.38648045 -0.12202887
-0.5120089 0.43556944 0.11044886 -0.51997095 0.46650788 0.39010412 -0.17712593 0.27305797
-0.5475394 -0.1005307 0.42761707 0.21067105 0.16836785 0.5021001 -0.7016529 0.28434238
-0.010912002 -0.034602907 -0.19386658 0.25863305 0.024090398 -0.14318721 0.43121147 -0.21772417
0.28561965 -0.2284373 0.38885286 0.08782361 -0.29387245 -0.49938843 0.10397607 -0.057993397
0.022916818 -0.088815115 0.02245178 -0.34269857 -0.16464573 0.15468591 -0.13739209 0.6592184
-0.12262038 0.10453999 0.06338696 -0.15897009 0.3917567 -0.04055282 -0.38932732 0.26298645
0.1973447 0.29430306 0.15020335 0.26862037 -0.099358775 -0.8968978 0.37074092 0.8032354
-0.12009462 0.5386856 0.25283656 -0.4631614 0.22557472 -0.8092738 -0.276484 -0.12008086
0.66283226 0.5705021 -0.11881507 -0.1332907 -0.083989844 -0.025393557 0.298624 -0.31053656
-0.93812686 -0.24995479 0.0877808 0.44464645 0.27326536 -0.33294225 0.063622095 -0.053415935
0.03701809 0.5830801 -0.22586322 -0.8028748 -0.31558326 0.47227588 -0.077289574 -0.010015365
0.5118149 0.2338134 -0.23504438 -0.36584362 -0.07323482 0.7560709 0.33058393 -0.46562186
-0.3665659 0.35090852 -0.34982476 0.19956818 0.28972477 0.21771562 -0.49740803 0.2879657
-0.6410762 -0.011664114 0.05621299 -0.251581 -0.14646584 0.31063545 0.53495586 -0.26386824
00000000: dac2 333e 8676 a3be d567 db3e aa85 63bf
00000010: 17ff 3abe 575f 3b3e a411 d4bb 894a d63d
00000020: c20a 893e a1d1 6e3e 9468 4bbe 559f 2f3b
00000030: adf2 f1be ed78 3e3e b476 d83c d366 61bc
00000040: 25ac 12bd 097f 2fbf 8072 643e 8f3b 563f
00000050: 6bcd 393e a090 cf3d 86b9 223f fe7f 913d
00000060: cf5b 97be 58a7 cf3c 38f6 5e3e 665e b7be
00000070: 0a5c 41be 014b 52be d06d ba3b 442e b33d
00000080: 387c 053e 9229 bcbd a1eb adbe b506 e83e
00000090: e3fb 39bd e6ea 913d 4b35 c1bd 3961 0bbe
000000a0: e368 ed3d fd3e 0f3e 016b 933d ef52 34be
000000b0: 69b0 153e fa1b 22bf f193 92be 3342 673e
000000c0: e80a b13e a6b5 53bd bf46 51be fdfb d93e
000000d0: 4005 f5bd f2f3 8cba 4a05 83be e608 e7ba
000000e0: 209e ab3e 1a85 fdbb 2f2e 5fbe d6d3 833c
000000f0: 90d8 0cbf 4796 09be 9133 7c3e b3c4 073f
00000100: 217e 49be 89ba 73be d7ea e7bc f966 89be
00000110: 6c8b 633e 8070 253e 9312 92be a94f ae3e
00000120: 7f69 d0be 496a 7dbd b4ee 3b3e ea6b 61be
00000130: c294 043f 694f 4ebe 23f4 8e3e 2d6e a7be
00000140: f471 dcbe 9830 8abe abb0 8ebe 7458 7e3e
00000150: 83c2 10bd f9cd af3d 195d f6be a646 973e
00000160: c6a8 14be b15f 513e d73e 093d 787b 33bc
00000170: 3f39 08bf 3d4e 81be 5fc8 afbe b88e 8a3d
00000180: c7d3 703c 41e4 b1be 06c6 813e c637 363f
00000190: 485b bbbd 9a36 053f a394 3f3f 9b8e 41be
000001a0: 99de 793e 0713 cdbe 1ca7 bdbe 537b a53e
000001b0: ca16 bc3d 42ff 8b3e f537 95be 676d 4bbe
000001c0: b2c5 5ebe c8a4 593e fe79 cb3d 62ca 9e3e
000001d0: 2e0a c7be c6bc a13e b9ce 57bd 66f4 4d3e
000001e0: 22b3 343e f0fb 00bc c25a 243f 8ad0 093e
000001f0: 7713 d73e 64bb ae3e 48ba 5bbe 8b23 debd
00000200: c52d b6be 43d7 52bf 7cd3 fd3d b04d f03d
00000210: a4ba 5c3e 66b0 1bbe 9768 e3be f12f fd3e
00000220: a076 cabe bd2e 8bbe 71fa 49be 0d25 733c
00000230: 2910 c5be 7cc8 a3be c4e0 c53e 46ea f9bd
00000240: 0413 03bf f502 df3e 0333 e23d d11c 05bf
00000250: 1fda ee3e babb c73e 8060 35be 41ce 8b3e
00000260: 8b2b 0cbf 0ae3 cdbd a0f0 da3e 27ba 573e
00000270: 9f68 2c3e a289 003f 869f 33bf 5395 913e
00000280: 41c8 32bc c7bb 0dbd f684 46be 8d6b 843e
00000290: 3a59 c53c ab9f 12be c0c7 dc3e 16f3 5ebe
000002a0: bd3c 923e 78eb 69be b917 c73e dddc b33d
000002b0: 7376 96be d7af ffbe 68f1 d43d 7c8a 6dbd
000002c0: 0dbc bb3c b3e4 b5bd ccec b73c 3076 afbe
000002d0: e498 28be fc65 1e3e 83b0 0cbe 89c2 283f
000002e0: 6520 fbbd 1019 d63d 06d1 813d 0ec9 22be
000002f0: 5694 c83e b71a 26bd e955 c7be 29a6 863e
00000300: bb14 4a3e e4ae 963e e8ce 193e 9c88 893e
00000310: 9d7c cbbd 189b 65bf c1d1 bd3e d6a0 4d3f
00000320: 2bf4 f5bd 4de7 093f cb73 813e 7e23 edbe
00000330: 0ffd 663e 912c 4fbf 508f 8dbe f4ec f5bd
00000340: 60af 293f 6d0c 123f 5155 f3bd 5b7d 08be
00000350: de02 acbd 2606 d0bc 3fe5 983e a6fe 9ebe
00000360: 1529 70bf 26f4 7fbe 6cc6 b33d b3a8 e33e
00000370: 70e9 8b3e 6877 aabe 4d4c 823d abca 5abd
00000380: 48a0 173d bd44 153f b048 67be 3489 4dbf
00000390: 2194 a1be 25ce f13e ff49 9ebd 7c17 24bc
000003a0: 4d06 033f c86c 6f3e 79af 70be db4f bbbe
000003b0: 23fc 95bd dd8d 413f 4c42 a93e fd65 eebe
000003c0: 87ae bbbe 48aa b33e 3b1c b3be 9a5b 4c3e
000003d0: ce56 943e d8f0 5e3e 44ac febe 3d70 933e
000003e0: 921d 24bf d71a 3fbc 983f 663d 3acf 80be
000003f0: 24fb 15be 9c0b 9f3e def2 083f bd19 87be

b2 f4 [10]
-0.054415267 0.09039633 0.11680809 0.06629476 -0.08847304 0.06763002 -0.038068444 0.11182336
-0.24565265 -0.026344161
00000000: 8be2 5ebd b621 b93d 1439 ef3d 8cc5 873d
00000010: 5a31 b5bd 9c81 8a3d a8ed 1bbd a503 e53d
00000020: 5e8c 7bbe b6cf d7bc
